…
      "filetype": "application/pdf",
      "languages": ["eng"],
      "page_number": 8,
      "filename": "nature.pdf"
    }
  },
  {
    "type": "Title",
    "element_id": "99b5a16130a1eb65de16321d17e825f5",
    "text": "Figure 3. Structure of the proposed convolutional fuzzy neural network.",
    "metadata": {
      "filetype": "application/pdf",
      "languages": ["eng"],
      "page_number": 8,
      "filename": "nature.pdf"
    }
  },
  {
    "type": "Table",
    "element_id": "8110f60b2fb677bdabd9cf7d838f17a6",
    "text": "No Layer Filter/Kernel/Node Output shape Param# 1 Conv1D 64/5 × 5/– (None, 73, 1) 384 2 Conv1D 32/3 × 3/– (None, 73, 64) 6176 3 Max pooling –/–/– (None, 73, 32) 0 4 Flatten –/–/– (None, 1152) 0 5 Fuzzy –/–/– (None, 2) 4608 6 Batch normalization –/–/– (None, 2) 8 7 Dense 2 (None, 2) 6 8 Defuzzy –/–/– (None, 2) 4 9 Activation –/–/– (None, 2) 0 Total parameters: 11,186 Trainable parameters 11,182 Non-trainable parameters: 4",
    "metadata": {
      "text_as_html": "<table><thead><tr><th>No</th><th>Layer</th><th>Filter/Kernel/Node</th><th>Output shape</th><th>Param#</th></tr></thead><tbody><tr><td></td><td>ConvlD</td><td>64/55/</td><td>(None, 73, 1)</td><td>384</td></tr><tr><td>o</td><td>ConvlD</td><td>32/3%3/-</td><td>(None, 73, 64)</t
…
